cartpole/models/CartPole-v1_best_run.pt (torch, 10261 bytes, 4 tensors)

weight f4 [256, 4]
00000000: 5801 563d d7de f43d 9cae cebe dda6 393e
00000010: 9bf6 b6bd b45d dfbe 1032 a8be 8d1a 58be
00000020: 6ad2 8a3e 39d3 9f3e bf53 e5be 457a 39be
00000030: d894 f23d 11a9 d4be 862b e53e 7609 f43e
00000040: ca6e f1be b8d7 973d c458 cabe 40fb 453c
00000050: a51c 253e deb2 26be d121 eabe 0d40 b2be
00000060: f0dc cfbe 7755 08bd ca3a 97bd 4c97 53be
00000070: 388c e33d c988 1abe 4501 c13d 8e08 f5be
00000080: d405 8e3a 7f02 603e 47b9 fd3e 1fec 6e3e
00000090: ae69 143d a488 42be 7997 50bd 615f 7c3d
000000a0: 02fb 163e 9055 cf3e e7f1 323d c418 23bf
000000b0: 0fb6 d13e 8261 bebe f08b 6bbe 376d 55be
000000c0: 4407 e3be 5e51 303e bb3f de3e ac31 4d3d
000000d0: d3f0 03bf 93f7 03bf 75de 243f bf9d af3e
000000e0: f202 49be 9321 463e 35ef 413e 0682 11bf
000000f0: 3cc5 f7be c4e5 803d c819 553e c4af 8dbe
00000100: c240 acbd 718f cabe b0af b53e faab a2be
00000110: 71dc 1fbe 91d4 4ebd 0192 7bbe fe68 f13e
00000120: 92e2 c13e b515 2bbe 65d1 5dbe 12e1 ef3d
00000130: f34c 0fbd 9f66 89bd 7725 e7bd 10ef 03bf
00000140: cb4f a1be 6783 9d3e a164 26be 5510 02bf
00000150: 8e6b f8be 63ef b73e a692 333e 2942 a83d
00000160: 989b 25be 1064 223e 57a2 71be a2d5 d5bd
00000170: a917 3f3d a0ea d53e 52f8 083f 21db f1bd
00000180: a24c fdbd c8ac 36be 5fe5 22be 01e7 b6be
00000190: bdf3 0dbe f5f7 84be 0215 d43a fba5 8d3d
000001a0: 6bc3 dbbe 02af aabe 4714 90bc 6cc5 ff3e
000001b0: e339 a03e 35c8 b13d ad90 63be 66ff 4e3e
000001c0: 8049 e6be 1b5d 693e 5cce 563e fb45 87bd
000001d0: 5578 a2be 1578 70be d111 8fbe 79aa f8bd
000001e0: ffd1 493e 73f4 6ebe 95e4 37be d07f 923d
000001f0: 060f 01bd 5ba2 9dbd f4f1 a3bd c678 fe3e
00000200: da7f 403d d962 29bd ce1b 8b3e bf75 563e
00000210: 1704 1abe 5a36 b03d f75c 40be f4d8 8abe
00000220: 541e 83be 094a f4be ef06 d1be a29e a73c
00000230: 36e9 803e 8edd b73e 349d f2be f0aa ce3e
00000240: d6c4 193c ca5b 943e 8bb6 253e ec9b c2be
00000250: 6381 443c b3dd 65be 8ecd e0bc aec8 59be
00000260: 350b 393e f8e7 cc3e 6b81 a3be 0d48 85be
00000270: ea4f dd3e 3ec3 e3bd baa0 a7be ff40 163e
00000280: 50d4 efbd 7c7e 273d c62a a6be 85f7 f73d
00000290: eda5 a0be af9a a4be dc94 913e cc82 0ebe
000002a0: 1065 b6be 0dee ef3e 97b3 05be 3b07 893d
000002b0: eaa3 113e f9c7 b53d 097b 11be d42f d83d
000002c0: 6faf f5bd 5f6b 06be 03d3 153f 05f6 913e
000002d0: df47 e7bd fe78 acbe 033c d4be d905 f93e
000002e0: 688e 41be 1515 f7be 6097 cd3e cd65 f23e
000002f0: 7eab 5c3e 7ec3 0dbe 26c3 853e 6c59 9dbc
00000300: 22b2 253e aa57 193f 12f3 7dbe 2c35 98bd
00000310: 583f 763e 3d44 863e 6a4b 833e 702a b8bd
00000320: f7dc 99be c223 c6be 630e ccbd eda7 c93e
00000330: 3e0d c83e cd61 f43d 0e7f a1be 3f42 b9be
00000340: 2d54 b53d 6479 ed3d 4230 623e 64b5 873e
00000350: 48ea a63e cf2e ab3d fe65 633e b701 95bd
00000360: e36a bb3e cdb5 bfbe eb85 9dbe ff17 4c3e
00000370: 4db9 5dbe 0898 d63e c3d5 fd3e 0ab4 3cbe
00000380: 2140 f2be 8d0a 433d 5e6f a43d 8ca7 78be
00000390: 07aa a23e 226d 713e cf18 74bc 2f49 723e
000003a0: 4ef0 5d3c 5847 c3be cdb4 e73e eaca b33d
000003b0: b5f2 f9be 8648 8e3d 99de a43e 0617 f63e
000003c0: d04d efbe 87af a03e 36c2 aabe c275 723d
000003d0: c606 493c 8c96 883e 14c9 fe3e 13b2 9cbd
000003e0: 7647 a43d 241b edbe 5aed 093d 0482 023e
000003f0: cade 88be 4576 83be 29cd adbe 3315 a3be
0.052247375 0.11956566 -0.4036759 0.1813006 -0.08933755 -0.43626177 -0.32850695 -0.21103878
0.27113658 0.31215838 -0.44790456 -0.18113048 0.11844796 -0.41535237 0.44759768 0.47663468
-0.47154838 0.07414192 -0.39520848 0.012083828 0.16124208 -0.1627917 -0.45728925 -0.34814492
-0.4059825 -0.03328463 -0.0738426 -0.20663184 0.11110729 -0.15091242 0.0942407 -0.4785809
0.0010835477 0.21875952 0.49555418 0.2333226 0.036233597 -0.18997437 -0.050925706 0.061614398
0.1474419 0.40494967 0.043687727 -0.63709664 0.40959212 -0.37183768 -0.230026 -0.20842443
-0.4434148 0.17218539 0.43407997 0.0500962 -0.51539344 -0.51549643 0.6440194 0.34300038
-0.1963003 0.19348745 0.18938906 -0.56839025 -0.48392665 0.06293824 0.20810616 -0.2767316
-0.08410789 -0.39562562 0.354856 -0.31771833 -0.15611435 -0.050495688 -0.24567415 0.47150415
0.37868172 -0.167075 -0.21661909 0.11712851 -0.034985494 -0.067090265 -0.11286443 -0.51536655
-0.3150619 0.30764315 -0.16249324 -0.5080617 -0.48519558 0.35924825 0.1753641 0.08215744
-0.16172636 0.15858483 -0.23597084 -0.10441138 0.046653423 0.41780567 0.53503907 -0.11809374
-0.12368132 -0.17839348 -0.1590781 -0.35723117 -0.1386251 -0.25970426 0.0016180577 0.06916424
-0.4292253 -0.33336645 -0.017587794 0.49955308 0.31294164 0.086807646 -0.22223158 0.20214614
-0.4497795 0.22789423 0.20977157 -0.066051446 -0.3173243 -0.23483308 -0.2794328 -0.1214189
0.19709013 -0.23335437 -0.17958291 0.071532845 -0.031508468 -0.076969825 -0.08005133 0.49701518
0.04699693 -0.041354034 0.2716965 0.20943354 -0.15040623 0.08604117 -0.18785463 -0.27118647
-0.25609076 -0.47712734 -0.40825602 0.020461384 0.25177926 0.3591122 -0.4738556 0.4036479
0.009385308 0.2897628 0.16182916 -0.38009584 0.011993739 -0.22447853 -0.027441766 -0.2126796
0.18070681 0.40020728 -0.31934676 -0.26031533 0.43225032 -0.11121224 -0.32739812 0.14673232
-0.11710417 0.04089211 -0.3245451 0.121077575 -0.3137659 -0.32149264 0.28433883 -0.13917083
-0.3562398 0.46861306 -0.1305679 0.06690832 0.14222685 0.088760324 -0.1420709 0.105559975
-0.11996352 -0.13126896 0.58525103 0.2850801 -0.11293005 -0.3368606 -0.41452035 0.48637274
-0.1890198 -0.48258272 0.40154552 0.47343293 0.21549794 -0.13844106 0.2612545 -0.019207679
0.16181234 0.5989939 -0.24799755 -0.07432017 0.24047601 0.26223937 0.25643474 -0.08992469
-0.30051395 -0.38699156 -0.099636815 0.3938593 0.39072603 0.119327165 -0.31542248 -0.36183354
0.08853946 0.11595419 0.22088721 0.26505578 0.32600617 0.083585374 0.22206876 -0.07275718
0.36604986 -0.3744339 -0.30766234 0.19931029 -0.21652718 0.41912866 0.4957715 -0.18428054
-0.4731455 0.047617484 0.08029054 -0.24282664 0.31770346 0.23576787 -0.014898493 0.2366073
0.013546063 -0.38140368 0.45255128 0.08778937 -0.48817983 0.069474265 0.3220108 0.4806444
-0.46739054 0.31383917 -0.33351296 0.059194334 0.012269681 0.26677358 0.49762785 -0.076511525
0.080214426 -0.4630977 0.03367362 0.1274491 -0.26732475 -0.2567617 -0.33945587 -0.3185211

bias f4 [256]
00000000: 94ae 76be 3bdd 4b3f 4004 433e e7a7 58be
00000010: 246a d4be 29f5 443f 435e f73e 54e6 3bbd
00000020: 06dc b43e 66d9 2e3f 5161 f8be 038d 193f
00000030: 6f8f 373f 66be 45bd 28af 66be 66b0 543f
00000040: df8c 293f 2755 0d3e 679b 1c3f 2498 0cbe
00000050: e2a0 49be de48 053f 336c 333f 04aa c63e
00000060: d457 2b3f 9b11 ffbe c292 91be 8dde cf3e
00000070: 81f8 493f a853 be3e 8c43 323f 33f5 58be
00000080: ea3b 3c3f 8cc9 553e d334 07bf f34e db3e
00000090: 4c93 873e 1178 b73e d991 07be 0f9c 053f
000000a0: 6e92 383f 6332 503f 75b6 10bf d7d6 c73e
000000b0: 04a0 43be 5888 01be ba5c b8be 4738 4d3f
000000c0: 5cb9 653e 003a 5a3f b9ce f23e afb7 ab3e
000000d0: 3a21 083f 09e1 1d3f a069 f5be 002f 70be
000000e0: 0ede 503f 1ccc 0a3f 5355 b4bc 144a d03d
000000f0: 196f 0c3f 22be 563f 45fb 0bbf 61d5 bd3e
00000100: 5e06 b7be 1969 093f 0df0 8ebd adcc fa3e
00000110: 48c7 223f 02eb 7a3e 095a 9dbe 6916 e8be
00000120: 6d2f ca3e a323 9abe e83f d5be ba18 483f
00000130: 90d0 60be f69e c83e 4191 443f 88c4 363f
00000140: a5b8 f33e 9ed0 c73e c743 c6be 030a 433f
00000150: 1a91 953e 9125 523f 7df4 07bf 2f5e f7be
00000160: 4f82 a1be fbb9 453f 78e8 0f3f d84d f6be
00000170: 1039 64be 79f0 d1be 1fb1 353f 6b24 873e
00000180: 90a0 0d3f 1202 073f bbf2 0a3f d6a4 cebe
00000190: f6fc 753e 4c41 d73e dda9 e33e ad5b 57be
000001a0: b964 1e3f 2d52 513e 1d79 0f3f 3178 413f
000001b0: bc44 1f3f a98b 403e 29c0 b23e 02e0 f63e
000001c0: 995b d4be eeb5 d73e 7670 283d be5d 3d3c
000001d0: a572 773e 98e7 673e 2b5c 03be 2a0a eb3e
000001e0: 2acc 0b3f 88e6 423e 9de3 d3be 6727 523f
000001f0: c464 a7be 46a0 2b3f 68f2 d63e eb08 033f
00000200: 1ec5 213f 1ecf 3c3e e3e0 273f e56e 363f
00000210: 2465 7dbe 0a6e 2c3f cc5f b6be de7a 903e
00000220: f5e5 a2bd c293 d43e d4b0 0d3e 4e7f 8cbe
00000230: d0b8 6a3e 53de c93d 0c28 a43e f856 ccbe
00000240: ac90 123f 6ac3 adbe bc93 c73e f134 493f
00000250: 5e14 80be 860c ae3e ba99 cd3e 81aa 963e
00000260: eee6 97be 19c4 d93e 9bf6 8a3e 44df 32be
00000270: 3b5d babd e8ed 9cbe e006 b6be a476 2d3f
00000280: 14fb 2fbe 7f6f 0a3f cef2 8a3e 969a 423f
00000290: 744c 983e 3230 27be 835c 513f 4cb0 c7be
000002a0: dd86 88be 2273 4dbe b9f3 d13e 55bf a8be
000002b0: 53a1 8c3e c5b7 173f f8b7 473f 147d 883e
000002c0: 8e2c 373f 2d22 f23e 62a9 52be c2d0 1d3f
000002d0: 1365 03bf 843c 283f 9d8e 25bd 6ded 983e
000002e0: 112e dfbe d549 5bbe 7640 a43d 8a65 333f
000002f0: d953 5c3e 5c8b 263f cd9a cb3e c19d a73e
00000300: eb16 efbe ef1b 9c3e 7405 e23e 7865 e9be
00000310: 7241 ebbe 4097 9e3e 23ef d23e af45 d83c
00000320: ae7c b53e ce25 153f a3fa 04be 30a9 eabe
00000330: e18b 053f 13d2 443f 3105 963d 664a 5bbe
00000340: 75f0 0c3f f33e 52be 44c4 02bf de64 5ebe
00000350: 72df 24be 7ad7 72be 6fe0 d1be d8d3 9c3e
00000360: 7f17 b13e 8155 9ebe 4139 393f 9d21 1d3f
00000370: 5087 da3e e8b0 393f d4fb 3b3e 665d 4a3f
00000380: 7273 3fbe fa93 253f 38a3 423f e0ea 893e
00000390: 93d0 03bf 3916 463f 737a 363e 0551 5f3e
000003a0: ec85 59be a5f2 a83e 3a22 4f3f d4f9 7f3e
000003b0: 572d 003f b67a 393f 8cb6 afbe 3263 c5be
000003c0: 892f 253f 08ee 00bf 6ac8 26be be12 4d3f
000003d0: df53 913e 3c33 3c3f a921 093f ec6f ffbe
000003e0: f776 063f ca29 b5be 7056 6dbe a12d 2c3f
000003f0: 61e0 393f be07 4fbd d266 d43e 320c 433f
-0.24090034 0.79634446 0.1904459 -0.211578 -0.4148723 0.76936585 0.48314103 -0.045873955
0.35324115 0.68300474 -0.48511747 0.5998079 0.7170324 -0.04827728 -0.22527754 0.8308166
0.6623058 0.13802014 0.61174625 -0.13729912 -0.19690278 0.5206431 0.70086974 0.38801587
0.6693089 -0.4981812 -0.2843228 0.4059948 0.7889481 0.371732 0.6963432 -0.21187286
0.7352892 0.20877665 -0.5281498 0.4283367 0.26479566 0.3583379 -0.1323923 0.5219125
0.72098434 0.81326884 -0.5652841 0.39031097 -0.1910401 -0.12649667 -0.36008245 0.80164
0.2243399 0.8524475 0.47423342 0.33538577 0.531757 0.616715 -0.47932148 -0.23455429
0.8158883 0.54217696 -0.022013342 0.10170379 0.5485702 0.8388387 -0.5468028 0.37076858
-0.35747045 0.5367599 -0.0697938 0.4898428 0.6358533 0.24503711 -0.30732754 -0.45329598
0.39489308 -0.30105314 -0.4165032 0.7816273 -0.2195456 0.39183778 0.7678414 0.7139363
0.4760181 0.3902635 -0.38723585 0.7618715 0.29212266 0.8208857 -0.53107435 -0.48314044
-0.3154473 0.7723691 0.56214094 -0.48106265 -0.22287393 -0.4100378 0.7097339 0.26394972
0.55323124 0.52737534 0.5427663 -0.40360135 0.24022278 0.42042005 0.44465533 -0.21031065
0.6187244 0.20441504 0.5604418 0.7557402 0.62214255 0.18803276 0.34912232 0.4821778
-0.41476133 0.4213099 0.041122876 0.011557994 0.24164827 0.2264694 -0.12828128 0.45906192
0.54608405 0.19033253 -0.41384593 0.82091373 -0.32694066 0.6704143 0.41981816 0.5118548
0.631914 0.18438384 0.65577525 0.7126296 -0.24745613 0.67355406 -0.35619962 0.2821874
-0.07954017 0.4151898 0.13836986 -0.27440876 0.22922063 0.09856858 0.32061803 -0.39910102
0.57252 -0.33938152 0.389799 0.7859641 -0.2501554 0.3399393 0.40156347 0.2942696
-0.29668373 0.42532423 0.2714127 -0.17467982 -0.090998136 -0.30650258 -0.3555212 0.67759156
-0.17185622 0.5407638 0.2713837 0.7601713 0.2974583 -0.16326979 0.81781787 -0.3900169
-0.26665393 -0.20063451 0.41006258 -0.32958475 0.2746683 0.59264785 0.7801509 0.26657927
0.7155236 0.472917 -0.20572427 0.61646664 -0.513261 0.6571734 -0.04041921 0.29868641
-0.43589833 -0.21414883 0.080201074 0.7007681 0.2151636 0.65056396 0.3976654 0.32737544
-0.46697173 0.30490062 0.44144785 -0.45585227 -0.45948368 0.3097477 0.41198072 0.026400415
0.35446686 0.5826081 -0.12986235 -0.45832205 0.52166563 0.7688305 0.07325209 -0.214151
0.5505441 -0.20531826 -0.5108073 -0.21718165 -0.16100863 -0.2371501 -0.40991542 0.30630374
0.3458824 -0.3092461 0.7235299 0.61379415 0.4268136 0.7253556 0.18357784 0.79048765
-0.18696383 0.6467892 0.760303 0.26937008 -0.51490134 0.7737766 0.17820148 0.2180825
-0.21242493 0.32997623 0.809116 0.24997646 0.50069183 0.7245287 -0.3431896 -0.38552243
0.6452566 -0.50363207 -0.1628739 0.80106723 0.283843 0.7351568 0.53566986 -0.49890077
0.52525276 -0.35383445 -0.23177505 0.67257124 0.72608 -0.050544493 0.41484696 0.76190484

weight f4 [2, 256]
00000000: 00c1 af3c 6ef1 933e c2d5 4b3e efb9 063d
00000010: 266d 26bd f90f 853e d4fd 6a3e 2d4f 30be
00000020: b39b 953e f2d1 8a3e 8fd9 33be 8f7c 463e
00000030: c3c2 4b3e 4fd5 64bc 2cd9 1dbe 45c8 943e
00000040: 702f 913e ff35 003e 9127 633e 2a4b 8abe
00000050: 4455 7ebd ebdd 833e 51a0 383e 704b 4b3e
00000060: c6d4 8b3e e7e2 33be 04f7 16be a00e 963e
00000070: 0564 7b3e eb7f 393e 566d 8b3e 98db 103d
00000080: 1512 763e 1bda 7c3e 3a9e debd 84ca 923e
00000090: 2d15 243e 141d 473e 6eab 8cbd 00dd 223e
000000a0: 8fa2 833e e886 593e b800 10be 15b4 a83e
000000b0: 78de 18be 2091 293d b22a ff3b a8ff 483e
000000c0: e04e 643e 583f 743e 362e 383e e82e 793e
000000d0: de7f 693e 1394 543e 0745 f9bd 21a5 1fbe
000000e0: 8fef 5e3e e8ab 653e 8ace fbbd 152a 023e
000000f0: 0722 a73e b77a 603e 377b 37be 98fe 423e
00000100: 3e30 ddbd 8dea 943e ae90 a5bd bbcc 893e
00000110: d247 843e 51b6 0b3e 2707 a93c 173d 9bbb
00000120: fc7d 7c3e 8ef7 a1b9 ba56 393d 394a 873e
00000130: 8836 923c 571a 893e 9a62 3f3e 7bfa 893e
00000140: 9846 3d3e 6888 4e3e 4aba 243d 3382 7d3e
00000150: c5b5 4c3e c326 563e 3cb5 34be cb97 b93c
00000160: 01a2 b1bd 4e94 703e 259d 963e 8d9d 39be
00000170: 796f 13be 9036 32be 15ef 563e e63b a33e
00000180: ded9 5e3e 2028 893e 2576 2e3e 80fa d4ba
00000190: f1a5 843e 8b9e 8d3e 9459 743e f954 03bd
000001a0: d653 9a3e 78a1 5a3e 1376 9b3e 3dc0 693e
000001b0: 249b 4d3e 2365 2f3e bf4d 4b3e 9b29 7e3e
000001c0: 1336 5ebe cc44 9c3e 3f2e 423d 77ef 7cbd
000001d0: 52bc 433e 7a2b 0a3e ee19 1cbd 9491 423e
000001e0: b9bd 873e 34f5 cc3d 7311 27be a273 693e
000001f0: 1aeb 60be 5288 4f3e 16d1 a53e a139 7f3e
00000200: fcfd 8b3e 106e 143e 1f79 9f3e f64a 803e
00000210: 1e2b 483c 89bb 943e d46b c43c 2ab6 7f3e
00000220: 8661 01be fd73 883e 5684 d03c ae9a 01bd
00000230: df86 723e de87 5d3d c74f 763e 2d18 4bbe
00000240: 8566 933e 2e02 3abe 09fa 173e 67c1 433e
00000250: ff8c 1ebe 9bcd 963e d308 763e 4e59 ac3e
00000260: 29c3 54bd 50a7 8e3e 964e 583e 1fd3 78be
00000270: c7e5 32be 975b 8cbe 3c4a 31be d8c3 6a3e
00000280: 7c4b 09be 1e6e 943e 13aa 633e a6aa 5c3e
00000290: 5577 a33e d550 acbe f82a 833e cf72 a9bd
000002a0: 6825 65be 2e85 3bbe 81fe 933e 61a6 43be
000002b0: fb36 1d3e 3a2a 5c3e d65a 743e dce2 3d3e
000002c0: df0a 9a3e 7302 903e bc2e 19be 7365 873e
000002d0: 58be f3bd 5121 693e b83f c13d 4880 573e
000002e0: 9895 75be 1ef6 24bd 4e8a a13d 83ec 663e
000002f0: b1be 1d3e a4f1 6e3e 809d a13e 7d7c 413e
00000300: 6794 9cbd 1edf 923e bde8 903e 02fd 10be
00000310: 908a 1d3c 0a01 8a3e 9f1a 9c3e f72a c83b
00000320: 967b ba3e 617b 593e fd6b 5ebe c88f 13be
00000330: b072 373e 13c3 3f3e 8580 bc3d e32a 79be
00000340: 6c9c 983e 63ff e5bd eae9 93bd 32d7 923d
00000350: f753 eb3c 1ac0 6ebd 8fff dfbd 609e 7f3e
00000360: 2e27 fd3d 7c71 40be 5457 883e fca9 763e
00000370: 3d37 373e b751 763e 4048 1b3e fb44 353e
00000380: ce2f a3bc eb81 863e 2b13 953e 2ff6 803e
00000390: ee80 1cbe b4f9 903e 6e31 1a3e 3dac 223e
000003a0: 7ffe 32be 4921 283e 2577 5d3e 8ab3 113e
000003b0: 5706 883e 2b5d 903e 85b3 44be 43b1 f6bd
000003c0: 5a1b 473e 6df5 1dbe d45b 9ebd d0a9 963e
000003d0: 8620 7c3e 0ecb 3b3e 861c 963e 94c6 f5bd
000003e0: f30f 8b3e a637 f73a 79ca 993c 55d2 863e
000003f0: d25f 903e 328f 82bd 088d a63e 0570 733e
0.021454334 0.28895134 0.19905761 0.032892164 -0.040631436 0.2598875 0.2294839 -0.17217703
0.29220352 0.271133 -0.17563461 0.19383453 0.19898514 -0.013966872 -0.15414876 0.29059044
0.28356504 0.12520598 0.22183062 -0.2701047 -0.062093034 0.25755247 0.18029906 0.19852996
0.2731077 -0.17567025 -0.14742666 0.29308033 0.24549873 0.18115203 0.27231854 0.03536567
0.24030335 0.24692576 -0.10870023 0.28670132 0.16023703 0.19444686 -0.06868635 0.15904617
0.2570996 0.21242869 -0.14062774 0.32949892 -0.14928615 0.041398168 0.007787072 0.19628775
0.22295713 0.23852289 0.17986378 0.243343 0.22802684 0.20759611 -0.12171369 -0.15590335
0.21771072 0.22428858 -0.122952536 0.12711366 0.32643148 0.21921812 -0.17918096 0.19042432
-0.10800217 0.29085198 -0.08084236 0.2691401 0.25836045 0.13643767 0.020633293 -0.004737507
0.24657434 -0.00030892756 0.045248725 0.26423815 0.017848268 0.26777908 0.18689957 0.26948914
0.1848396 0.20169222 0.04021672 0.24756698 0.19991215 0.20913224 -0.1764726 0.022655388
-0.08673478 0.23494074 0.29416767 -0.18126507 -0.14397992 -0.17403626 0.2098964 0.31881636
0.21762797 0.26788425 0.17037256 -0.0016248971 0.25907853 0.2766002 0.23862296 -0.032063458
0.30142087 0.21350658 0.3036352 0.2282724 0.20078713 0.17128424 0.19853877 0.24820559
-0.21700315 0.30521238 0.047407385 -0.06175181 0.19114807 0.13493147 -0.038110666 0.19000846
0.26511934 0.10007706 -0.1631525 0.22798017 -0.21964684 0.20266846 0.32386082 0.24924327
0.27342212 0.1449511 0.31147096 0.2505719 0.012217311 0.29049328 0.023977198 0.24971834
-0.12634858 0.26650992 0.025453728 -0.031641655 0.23684262 0.05408465 0.2405387 -0.19833441
0.28789154 -0.18164894 0.14841475 0.19116746 -0.15483473 0.2945374 0.24026804 0.33661884
-0.05194393 0.27862024 0.21123728 -0.24299286 -0.17470466 -0.27413628 -0.17313474 0.22926271
-0.13407701 0.28990263 0.22232847 0.21549472 0.3192698 -0.3365542 0.2561872 -0.08273851
-0.2237755 -0.18312523 0.2890511 -0.19106437 0.15353005 0.21500483 0.23862776 0.18543571
0.3008642 0.2812687 -0.14959234 0.26444587 -0.119015396 0.22766615 0.094359815 0.21045029
-0.23982847 -0.04027378 0.07887708 0.2255116 0.15404774 0.23334366 0.31565475 0.18895145
-0.07645493 0.2868585 0.28302565 -0.14159015 0.009615555 0.26953918 0.3048906 0.0061086374
0.36422414 0.21238472 -0.21720882 -0.14410317 0.17914844 0.18726759 0.09204201 -0.24332766
0.2980684 -0.11230352 -0.0722235 0.071699515 0.028726561 -0.05828867 -0.10937416 0.24962759
0.123609886 -0.18793291 0.26629126 0.24088281 0.17892165 0.24054609 0.1516428 0.17702095
-0.019920256 0.26270995 0.29116186 0.25187823 -0.15283558 0.28315508 0.15057918 0.15886016
-0.17479895 0.16418947 0.21627481 0.14228645 0.26567337 0.28196082 -0.19209106 -0.12045529
0.19444028 -0.15425654 -0.077323586 0.29426432 0.24621782 0.18339178 0.29318637 -0.120007664
0.27160606 0.0018861189 0.018773304 0.26332346 0.28198105 -0.063749686 0.32529473 0.23773201

bias f4 [2]
00000000: 3214 3c3e c784 6e3e
0.18367079 0.23292838
