cartpole/models/CartPole-v1_best.pt (torch, 10261 bytes, 4 tensors)

weight f4 [256, 4]
00000000: 9c1a c13e a86e 7e3e bf6c 193e 63ab cf3e
00000010: 98ac b93c d316 97be dae5 b03e af30 94be
00000020: 074d 983e 9549 febe 7d40 8f3e db74 fc3e
00000030: 884d 5bbd e805 e2be a75f ac3d 64d8 db3e
00000040: af5b d13c 2981 333e 08d9 0bbe 3ab6 f83e
00000050: 2227 da3e 746e a6be 748b 4ebd 5558 d23e
00000060: 8d47 e5be 795c 96be 05e9 c8be cd35 ebbe
00000070: 0736 b03d 8872 333e 4bbb 8cbe 5f4a d1be
00000080: aff2 9fbe fec5 4c3e c968 edbd 8bc6 e1be
00000090: d2bf ed3e e29c c33e b2c6 5a3e 6877 c3be
000000a0: 1048 213e 4843 2ebe 5202 a73e 660f 37be
000000b0: 64cf 8c3e bcdb b4be fc87 d93e 67a4 163e
000000c0: bdf9 3d3d 7d2a ea3d ddbb cb3d c848 0abe
000000d0: 9b66 17be c0ca 26be 483d 83bd 07b8 3fbe
000000e0: 1c11 babe 53a3 dbbe b5b2 bb3e 9397 ef3e
000000f0: 81cd 47be e06e d7be 92a6 473e 9fe5 f9be
00000100: f2ae 58bb 1cf0 db3e 92e6 42be b1e9 dc3d
00000110: a841 48be 737c 3cbe 73a7 9fbe 559f 9fbd
00000120: 1a8f cbbe 8a08 adbe 754f d23e 0ae6 75be
00000130: ce6a efbe 43a1 1a3d 83ac 66be 9856 b9be
00000140: 9640 bc3e 5b1f 90be 8b8c bf3e 6dcc e43e
00000150: 1f2d e23d ccc6 d33e a3a5 583e e851 6abe
00000160: 52d2 e33e f697 013d 0656 9abe 1140 84be
00000170: 0b87 75be a378 c4be ccc4 45bd aeaf c9be
00000180: 7069 3abd 9708 81be 1136 c53e 791e e93e
00000190: 8001 db3e 35fd c5be a118 08be 1256 243d
000001a0: 6799 01be abb4 fd3c f4e0 d03d 9257 e2be
000001b0: 9087 ba3e 8002 8a3d 94a0 d1be b9b3 bcbe
000001c0: 0090 a93e aa8c 1f3e 1de0 b53e b16b ea3e
000001d0: f5aa c7be e828 2a3e f200 703e 94e1 ae3c
000001e0: e7ff ce3e e069 5f3e acfd 8cbe 6713 9fbe
000001f0: 3d3a 293d e54c 22bd d753 253e 32be 8e3e
00000200: 6cc6 863e 47c4 c1be 0d2b a93d c2b9 debd
00000210: 7c3c 013e d3b6 c03e a909 c8be 2acf c3be
00000220: adf1 0d3e 3949 f33e 4976 7e3e 542e 48bd
00000230: 60b3 02be 1cc6 933d df41 643e f8b1 b9be
00000240: 53d5 90be 643e 3e3d 388c 5abe d967 41bd
00000250: d4b2 cfbe fcc4 f13e 6535 69bc 1399 93be
00000260: 8499 623e ce4c ecb9 2901 6b3e b180 c9be
00000270: fd81 b9bd d865 cf3e d428 4dbd 571e ea3e
00000280: 0722 d63e f75e a43e 5b17 a53e fda9 f43e
00000290: 2b97 00bf 4aeb f23e 4e56 703e d584 82be
000002a0: da0c c23e bdfd bd3d 5b82 763e 6ecd 28be
000002b0: ed8b f1bd b7aa 88bc e85c 0b3e 6445 973e
000002c0: 7f38 bdbe 19a6 8dbd 8679 553d 914e 873e
000002d0: d7a5 9cbe c917 523e 251d 93bd af71 a2be
000002e0: f8b1 a0bb a906 cdbd 031b c83e a72b 13be
000002f0: 2272 ec3e 1b33 05bb e888 4f3d ad8c 1dbe
00000300: cb50 11bc e310 91be 875e be3c 7a64 d33d
00000310: 69ee a6bd 9ae4 303e a1f8 bb3e 2ec1 143e
00000320: a88c cdbd c0a4 873e 2b7d 403e 9255 f33d
00000330: 6f7e b53e a915 a63e f4ad aebe a187 b6be
00000340: 6b93 c3be 5083 ab3e e5e5 e4bd 5f32 f63d
00000350: 70e2 9a3d 183f a4be ba10 0a3d 7918 0ebe
00000360: 7fac 3a3d 48bb db3e 1647 ab3d 85ac f53e
00000370: 0e89 653e 9f46 46be 5d1c b6be d87b d5be
00000380: 8f43 dbbe c561 58be b207 593d 370e b23e
00000390: 43a4 e43c 2c13 a83e 971c a63c 5b4b f83e
000003a0: e16b 31bd 001b 4f3e 810a 82be 327b 8dbe
000003b0: 7fde 793e b49a 903e f0fe 103e f29d 4dbe
000003c0: 7787 883e c0ed 883e ae33 fd3e 635a 4d3d
000003d0: 6e0a 893e 4d45 063f 0dcb d63e 1f0e 41bd
000003e0: a3fe 9cbe 547e efbe 361e 93bd f48d d1be
000003f0: 34b2 cabe ddd5 9d3e 9be9 c33e c3f5 e93d
0.37715614 0.248469 0.1498289 0.40560445 0.022665307 -0.295096 0.34550363 -0.28943393
0.29746267 -0.49665514 0.27978888 0.49307904 -0.053540736 -0.4414513 0.08416682 0.4293853
0.025556413 0.1752974 -0.1365701 0.48576528 0.4260798 -0.32506144 -0.05042596 0.41083017
-0.4478115 -0.29367426 -0.3924028 -0.45939484 0.08604055 0.17524159 -0.27486643 -0.40877053
-0.3123984 0.19997403 -0.11592252 -0.4409679 0.4643541 0.3820563 0.21364859 -0.38177037
0.15750146 -0.17017853 0.32618958 -0.17876968 0.27501976 -0.35323894 0.4248656 0.14711152
0.046380747 0.11433885 0.099479415 -0.13504326 -0.14785235 -0.1628828 -0.06408173 -0.18722545
-0.36341178 -0.42898044 0.3665978 0.4679533 -0.19511987 -0.42076778 0.19497135 -0.48808
-0.003306326 0.42956626 -0.19033268 0.107867606 -0.19556296 -0.18406849 -0.3118244 -0.07794062
-0.39757615 -0.33795577 0.41076246 -0.24013534 -0.46761173 0.037751447 -0.22526745 -0.36198878
0.36768025 -0.28148922 0.37411913 0.44687214 0.110437624 0.41362607 0.21156935 -0.22882807
0.444964 0.031639062 -0.30143756 -0.2583013 -0.23977296 -0.3837329 -0.048283383 -0.39391845
-0.04551071 -0.25201866 0.38517812 0.4553106 0.42774582 -0.38669744 -0.13290645 0.040121146
-0.12656175 0.030969938 0.101991564 -0.44207436 0.3643155 0.06738758 -0.40942824 -0.36855868
0.33117676 0.15581003 0.35522547 0.45785287 -0.38997617 0.16617167 0.2343786 0.021347798
0.40429613 0.21817732 -0.27537286 -0.3106949 0.041315306 -0.039624114 0.16145264 0.27879483
0.2632326 -0.3784506 0.082601644 -0.10875274 0.12620729 0.37639484 -0.3906987 -0.3824399
0.13861723 0.47516802 0.2484981 -0.048872307 -0.12763739 0.07215521 0.22290753 -0.36268592
-0.28287753 0.04644622 -0.21342552 -0.047218177 -0.40566123 0.472206 -0.014233922 -0.28827724
0.22128874 -0.00045070652 0.22949661 -0.39355996 -0.090579964 0.40507388 -0.050087765 0.45726272
0.41822836 0.32103702 0.3224438 0.4778594 -0.50230664 0.47445136 0.23470423 -0.25491968
0.3790043 0.09276912 0.24073164 -0.16484615 -0.11794267 -0.016682966 0.1360966 0.29545128
-0.36957166 -0.06916446 0.052117847 0.2642713 -0.30595276 0.20516886 -0.07183293 -0.3172736
-0.004904028 -0.10011036 0.39083108 -0.14372121 0.46180826 -0.002032465 0.050667673 -0.15385695
-0.00886936 -0.28333196 0.023238434 0.10321899 -0.08150942 0.17274705 0.36713126 0.14526817
-0.10036594 0.26492882 0.18797748 0.118815556 0.35448024 0.324384 -0.3411709 -0.35650352
-0.38198408 0.3349862 -0.111766614 0.12021326 0.07562721 -0.32079387 0.033707358 -0.13876523
0.04557466 0.42916322 0.08363168 0.47983184 0.22415563 -0.19362877 -0.35568514 -0.41696048
-0.4282498 -0.21131046 0.052985854 0.3477647 0.027910357 0.32827127 0.020277305 0.48494992
-0.043315772 0.20225143 -0.2539864 -0.27633053 0.24401282 0.2824303 0.14159751 -0.20079783
0.2666585 0.2674389 0.4945349 0.050135028 0.2676577 0.52449495 0.4195179 -0.047132608
-0.30663022 -0.46776068 -0.07183497 -0.40928614 -0.39589083 0.30827227 0.38264164 0.114238285

bias f4 [256]
00000000: a97c 463e df24 6a3e c36e 67be 2c78 79bc
00000010: ff8d 803e 985a 843e 7cd9 77be 2339 953e
00000020: 3ed1 a9be cbaf 2fbe 5e19 c73d 00a3 303e
00000030: d81c b33e 50b6 92be 81f4 bf3e 1aaa 9c3e
00000040: 3183 87be 6d15 a73e 5c51 c03e 6537 5dbe
00000050: 599e 14be 2bad 9abd 0978 b1be b3c5 8b3d
00000060: c473 e0be bd5b c2be 3644 3cbe 77ab b0be
00000070: d979 3abe 820e 373e 783c 89be ca52 e1be
00000080: 647e 6ebc a604 dfbe 5ecc 90bc 42c3 b0bb
00000090: 9397 6e3e 9c0a 553e c58d debd 3bce ba3d
000000a0: b21e 743e bc07 d43e bca0 473e bd1a 613e
000000b0: 94ac f6be 0cb9 da3e 13f6 71bb e4d1 02be
000000c0: e8d7 c03d c3db 0b3e 35f8 1b3e 86ce c7bd
000000d0: ecba acbe 68d5 bebd 99be 9abd 4939 2abe
000000e0: 96fa 8b3e 197a d23e 8e10 b1bd 3961 e9be
000000f0: 10fa 4cbb 505d bfbe dc47 50bd fad8 bdbe
00000100: ef71 993b 8100 903e c64b 613e c433 113e
00000110: d265 a53e 2b1c 943e 9fb2 6fbe 2cf7 3dbd
00000120: f582 a9be f9c3 fcbd 4705 a4bd c520 9a3e
00000130: 1afe 853d 875a 21be a6a9 c13e d04b 6cbe
00000140: 9807 023f fd0d 773e 7c95 813e 612e 833d
00000150: 2431 8abe c86c c6bd 7c3a 3abe 8f42 6ebe
00000160: 2a5b 2f3e 157b 1a3e 81a3 71be 0141 40bc
00000170: 544c 97bd 2a62 f5be 5da0 acbe 9b45 8d3e
00000180: ede5 2dbe f7d2 9f3d 02b8 4abd c0ae 853d
00000190: 6ce1 8cbe e208 573e f278 f7ba 99ac e8bd
000001a0: 7640 28be d82f 79bd 9c20 e3be 13f0 46be
000001b0: b79f aebe bb57 7ebe 2c2b b23e 0e63 f9be
000001c0: 76c2 363d 4f6f f33e 7750 5e3e 8949 7b3e
000001d0: 9662 8fbe e2fb 033c ec90 56be 1c74 a4be
000001e0: 562d d33e 5df0 3bbd 1cb9 d33e b022 413e
000001f0: fed3 3bbe 3ec9 f53e ded5 e03e 78f4 763d
00000200: 8fc0 b63e 2099 b1be 5b71 00bf c56f 1e3e
00000210: f979 d7be ce23 c6be 8bd0 263e 7eaf c93c
00000220: 4155 7cbe 49ce 193e e482 0e3e e261 933e
00000230: 12ba 063e 642f f5be 1ff5 e23d c6af 883e
00000240: 3f52 a9be c05f efbe 3a08 46bd 400b 8bbe
00000250: 8edf 783d a61b 073e 574d c93e 53bd 583d
00000260: 6d46 bbbd aa5d b93e 9143 bebe cf2a 3dbe
00000270: fada e13e 92ff 8cbd 00bc f0be 01d4 003f
00000280: 1df0 da3e af5a 2f3e b204 e73e 013a dabd
00000290: 9ce2 9c3e cf28 e3be b77d af3c 841e cdbe
000002a0: 192c f83c 6693 6a3e 6986 bb3c 6c42 12bd
000002b0: d389 1e3d 1789 c83c 6250 443c ad59 f4be
000002c0: 05d5 a6be 5568 f0bd 329e dbbd f83b 7a3e
000002d0: ad33 ea3e 0b81 dd3e d491 2cbe 71ef bcbe
000002e0: 2a02 4e3e 042e 89be 0a20 c8be 757b 373e
000002f0: 102e 9ebe 1471 833d 3d47 b73e 813c 373e
00000300: e6c6 de3e 0da1 bbbe b7e4 df3e f745 b2be
00000310: 899a ebbe 2fac 763e 2326 b0be 7eaf d6bd
00000320: f47e c2be adc1 43be a1f8 ae3e 9290 e8be
00000330: e7a4 d73e 756f 19bd 6a87 b83e 503c cd3e
00000340: 78ff e73e 4880 97be 558f c6be 7657 e83e
00000350: ca70 90be ffc1 e13d c169 f0bc da2f 833e
00000360: 891c eb3e f85c 5e3e ee2b 823d a30e bc3e
00000370: 4b62 b7be bf64 993e 1dad d63e e329 96be
00000380: 70a2 15bd 92fd 83be 0cfe a93b 2f5d b13e
00000390: 4da7 d43e 41dd ad3b f694 83be dde2 b23c
000003a0: 6cd7 b7be f609 e6be fc13 d3be 0eb3 18bd
000003b0: 629b 6a3e 4214 d4be 22d6 a0be 5681 e4be
000003c0: 41e9 493e bdad adbc 1692 87be 94d6 413e
000003d0: ed34 6ebd 0d07 cc3e fe54 9ebe a425 e33e
000003e0: 01c3 2f3e d81b b0be bb4c a4be 0897 103e
000003f0: be6f b93e 2d46 87be 338e 8c3e ac29 e83e
0.19383492 0.22865628 -0.22600846 -0.015226405 0.25108334 0.25850368 -0.24204057 0.29145154
-0.33167452 -0.17156903 0.09721635 0.1724968 0.34982944 -0.28654718 0.3749123 0.30598527
-0.2646728 0.32633534 0.37562072 -0.21603163 -0.1451353 -0.075525604 -0.34661892 0.068248175
-0.43838322 -0.37960616 -0.18385395 -0.34505817 -0.18210544 0.17876628 -0.26803946 -0.44008476
-0.014556501 -0.43558234 -0.017675575 -0.0053943703 0.23300008 0.20804828 -0.10866884 0.091213666
0.23839834 0.4141215 0.19494909 0.21982856 -0.48178542 0.42719305 -0.0036920353 -0.1277538
0.09416181 0.13658051 0.15231402 -0.09756188 -0.3373636 -0.09318048 -0.07555885 -0.16623415
0.2733962 0.41108778 -0.08645736 -0.45581988 -0.0031276979 -0.3737588 -0.05084978 -0.37079602
0.0046827714 0.28125384 0.22001562 0.14179903 0.32304245 0.2892774 -0.23407982 -0.0463783
-0.33107725 -0.12342066 -0.08008819 0.30103126 0.06542607 -0.1575719 0.37824744 -0.23075795
0.5079284 0.2412643 0.2530936 0.064053304 -0.26990616 -0.09688717 -0.18186373 -0.23267578
0.1712462 0.15086015 -0.23597528 -0.011734248 -0.07387605 -0.47926456 -0.33716097 0.27592167
-0.16982241 0.0780391 -0.04949189 0.065274715 -0.27515733 0.20999482 -0.0018880649 -0.113610454
-0.1643084 -0.060836643 -0.44360816 -0.19427519 -0.34106228 -0.24838154 0.34798563 -0.48708385
0.044619046 0.4754586 0.21710382 0.2453977 -0.28004903 0.008055659 -0.20953721 -0.32119834
0.41245526 -0.045883525 0.41352165 0.18860888 -0.18342587 0.48005098 0.43913168 0.060291737
0.35693786 -0.34687138 -0.50172967 0.15472324 -0.42085245 -0.38699192 0.1629049 0.024619814
-0.24641897 0.15020098 0.13917118 0.28785616 0.13156918 -0.4788772 0.110819094 0.26696604
-0.3307056 -0.4675274 -0.04834769 -0.2715702 0.060760073 0.13194141 0.39316818 0.05291493
-0.09144292 0.36204273 -0.37160924 -0.18473361 0.44112378 -0.06884684 -0.47018433 0.5032349
0.42761317 0.17124437 0.4512077 -0.106555946 0.3064164 -0.44367072 0.02142225 -0.40062344
0.030294465 0.2290779 0.02289124 -0.035707876 0.03870566 0.024479432 0.011982055 -0.47724667
-0.32584396 -0.1173865 -0.10723533 0.24436939 0.4574255 0.43262514 -0.16852504 -0.3690143
0.20118013 -0.2679292 -0.39086944 0.17918189 -0.30894518 0.06418052 0.35796538 0.17894174
0.43511122 -0.3664631 0.43729183 -0.34819004 -0.46016338 0.2408912 -0.34404096 -0.10482691
-0.37987483 -0.1911685 0.34174064 -0.45422798 0.42117998 -0.03745981 0.36040813 0.40085077
0.45312095 -0.29590058 -0.3878123 0.45379227 -0.2821105 0.1102333 -0.029347302 0.25622445
0.45920208 0.21715152 0.06356035 0.36729917 -0.3581718 0.29959676 0.4192895 -0.29328832
-0.036531866 -0.25779396 0.0051877555 0.34641406 0.4153389 0.0053059165 -0.25699586 0.021836692
-0.3590654 -0.44929475 -0.41226184 -0.037280135 0.22910836 -0.41421705 -0.3141337 -0.44629925
0.19717886 -0.021201009 -0.26478642 0.18929511 -0.058155943 0.3984913 -0.3092422 0.44364655
0.17164232 -0.34396243 -0.3208979 0.14120114 0.36218065 -0.26420727 0.2745224 0.45344293

weight f4 [2, 256]
00000000: ac2b 23bc 7379 51bc b9e8 243d 3888 a0bc
00000010: c09b dcbc d043 07bd 3d9d a8bc e801 83bd
00000020: 7038 523d 7d82 54bd b88e eb3c abda 71bc
00000030: bfca 1f3d dfa6 223d 4263 0b3d 0d19 2abb
00000040: 7697 61bd ed5b 0b3d f14e 503d 2bf7 2c3c
00000050: 915e 143c 3d00 87bc ac76 c73b d539 1cbc
00000060: be76 793d a565 e73c 1ee9 4dbd 77e1 9cbc
00000070: a65d 453d 9d8f 663c 77a7 1fbd 2d51 353c
00000080: 3a92 d73c 1715 08bd 24c1 563c 02cb 63bd
00000090: a7ee 10bd 6cf2 d73b 0465 303d ed13 f5bb
000000a0: 4f6b ae3c fd01 32bd b234 58bc 9b09 01bd
000000b0: 8883 5ebd 0120 fc3c 2b93 20bd 4391 013d
000000c0: e05f 89bd 88e4 71bd 3bae 42bd 2e38 353c
000000d0: 9a68 5d3d fad5 83bc 786d ddbc d6da 9abc
000000e0: 9ef2 0a3d a196 e53b 4e53 3dbd eafe 71bd
000000f0: 2c8d 77bd 792d 57bd ff0f c53c 006d c33c
00000100: 65c7 123d ed77 7dbc 4b9b afbb 91fb b73b
00000110: 1c91 efbc 9925 4e3d 6892 893c 04da 353d
00000120: 5bc1 b5bc f363 233d 0234 413c 2b8c bfba
00000130: 8c71 72bd 782f 553d 23c0 e3ba aaab f43c
00000140: 9811 79bc ec6e d2bc c3b2 5d3d bb23 123a
00000150: 9240 61bb c7fe b53c 344d 1cbc f8c6 0dbc
00000160: 8345 8bbd 2003 18bd 1eac 813d 4979 473b
00000170: 81c3 31bd d206 213d 8ea8 24bc eeff ebba
00000180: 26d1 3f3d eb73 4ebd 65b7 6e3b 54b4 8fbc
00000190: 5705 fd3c 0abf 96ba 1f55 173c e4ef c7bc
000001a0: 7c9d fd3c 3d36 093d 2c9f f7bc 981b 27bc
000001b0: 38f5 1abd 7c8f 863d a174 76bd bd9e 42bd
000001c0: c38d d53b d1b1 7e3b 77e7 3dbc 856a 0e3d
000001d0: 8299 98bc ce6b d5bc 70f9 db3c 0e58 38bd
000001e0: d83c 09bd 597d c63c 8830 7d3b 83c3 e7ba
000001f0: b40c 66bc 9781 423d 01df 6fbd f259 c1bc
00000200: a2ac 4abc 25cb 0dbc f11b 153d 9ec7 55bd
00000210: a7e8 1bbc 02ff 0abd 4377 20bc 10b5 5dbd
00000220: cac4 84bc ee19 0d3d df52 543d e5d5 b53c
00000230: 0ee6 afbc 240b 93bc 0e31 b3bb 52ef 613c
00000240: e1e0 b0bb a83d a6bc 6a4b b3bc 3e5f a63d
00000250: 9525 093d 8a21 83bc b056 4c3c 82ca 393c
00000260: c6a1 4dbd e3ff 133d 79ea 3bbc b1b8 c3bc
00000270: 438f 583d d740 f03b 7a38 203d e30f b3bc
00000280: 11ac 3a3d 1f6a 913c c20b 2cbd f8cb 5d3c
00000290: 3dd4 34bc a7ea 91bc 8d68 81bd a320 183d
000002a0: 9472 4ebd 74f5 88bd 2eb7 b3bc 9222 7fbd
000002b0: bc09 5e3d 4614 50bd 9d5d 5d3c 64c4 eebc
000002c0: 21d1 8e3c ffb6 2f3d acaa e3bc 586c 60bd
000002d0: 18c5 e0bc ede6 2ebd ab57 4fbd 3b6a bfbb
000002e0: 8d47 53bd ea54 66bd 24d9 1fbd 4f7b 2a3c
000002f0: 0e5c 843d bc81 bc3c 039a d93a 5ada 7ab9
00000300: 8875 31bd f91d 0bbc 9d45 74bc 2296 31bd
00000310: ba35 803d 9a2d f9bc eb50 b13c faf4 833d
00000320: 55dc c2bc a086 223e 73fb 2b3c 7644 0bbd
00000330: 97fd cc3c a4e4 2c3d ffbe 8abd 6df3 21bc
00000340: 43b1 373d 9f3b 553d b7de 933d a51e 7b3b
00000350: 7860 31bd f9ef 313d 529b 3dbd ec62 913c
00000360: cd32 2ebd 0821 603d 9a59 473d 833e 193d
00000370: 0336 a9bd f7dc f4bb 2199 33bc 9673 423d
00000380: fc52 01bd f7fe 01bd 5b34 cdba b1fc bb3c
00000390: 80a1 2d3d 5594 4b3d 9ae7 3b3d 1e88 1c3a
000003a0: 2070 523d dcbc 01bc 8c3e a03b 8350 4b3d
000003b0: 7f8b cb3c 3c75 96bc c7c0 50bd 8027 103d
000003c0: cb67 613c 1dfc 573d 7a8b 3abd 0464 62bd
000003d0: 80de 31bc 11d9 c3bc 86fe 103b 9ce5 8ab9
000003e0: 3882 2abd ed44 1a3d 8365 9ebc ef94 83bd
000003f0: 2bbe cd3c db54 3f3d 5749 4b3c 541f 033d
-0.009959143 -0.012785303 0.040261004 -0.019596204 -0.026929736 -0.033023655 -0.02058279 -0.06396848
0.051323354 -0.051882256 0.028754577 -0.014761607 0.039011713 0.039709922 0.034030207 -0.0025954873
-0.055076085 0.034023214 0.050856534 0.010556976 0.0090557495 -0.016479606 0.006087145 -0.009535273
0.060904257 0.02824671 -0.050271146 -0.019150479 0.048185013 0.014072326 -0.038978066 0.011066717
0.026314843 -0.033223238 0.013107572 -0.055613525 -0.035383847 0.0065901782 0.043065086 -0.007479182
0.021291403 -0.043458927 -0.013196157 -0.0315033 -0.054324657 0.03077698 -0.03920285 0.031632673
-0.0670774 -0.059055835 -0.04752944 0.011060758 0.054054834 -0.016093243 -0.027029738 -0.018903177
0.033922784 0.0070064818 -0.046222024 -0.059080996 -0.060437366 -0.0525336 0.02405548 0.023855686
0.03583469 -0.015470487 -0.0053590885 0.005614706 -0.029243998 0.050328825 0.016793445 0.04439737
-0.022186926 0.03989024 0.011792185 -0.0014613917 -0.059190318 0.052047223 -0.0017375987 0.029867012
-0.015201949 -0.025687657 0.05412556 0.0005574782 -0.0034370762 0.022216214 -0.009539891 -0.008653395
-0.06800368 -0.037112355 0.06331657 0.0030437282 -0.043399338 0.039313145 -0.010049952 -0.001800535
0.04683032 -0.050403517 0.003642523 -0.017542042 0.030886335 -0.0011501026 0.009236603 -0.024406381
0.030958883 0.03349899 -0.030227266 -0.01019945 -0.037831515 0.06570336 -0.06016982 -0.047514666
0.0065171435 0.003886331 -0.01159083 0.034769554 -0.018627886 -0.026052382 0.02685234 -0.04500585
-0.03350529 0.024229692 0.0038633663 -0.0017682168 -0.014041115 0.047486868 -0.058562282 -0.02360246
-0.01237026 -0.00865439 0.0364036 -0.052192323 -0.009515918 -0.0339346 -0.009794059 -0.054127753
-0.016207118 0.034448557 0.051836845 0.02219672 -0.021472003 -0.017949648 -0.0054684943 0.013789969
-0.0053979014 -0.020293072 -0.021886546 0.08123635 0.033483107 -0.016007204 0.01247184 0.0113397855
-0.050203107 0.036132704 -0.011469477 -0.023891779 0.052871 0.0073319483 0.03911636 -0.021858161
0.04557425 0.017750798 -0.0420034 0.0135373995 -0.01103693 -0.017812086 -0.063187696 0.0371405
-0.05040224 -0.066874415 -0.021937933 -0.06228883 0.054208502 -0.050800584 0.013511089 -0.02914638
0.017433705 0.042899128 -0.027791344 -0.054790825 -0.027437732 -0.042700697 -0.050620716 -0.005841521
-0.051581908 -0.056233324 -0.03902544 0.010405376 0.064628705 0.02301108 0.0016601685 -0.000239232
-0.043324977 -0.008491033 -0.014909175 -0.04335607 0.062602475 -0.030417252 0.02164503 0.0644321
-0.023786703 0.15871668 0.010496962 -0.034000836 0.025023265 0.042210236 -0.06774711 -0.009884697
0.044846784 0.052058812 0.07220214 0.0038317826 -0.04330489 0.043441746 -0.046290703 0.017747365
-0.042528916 0.054719 0.048669435 0.03741313 -0.08262255 -0.00747263 -0.010961802 0.047473513
-0.03157328 -0.031737294 -0.0015655862 0.022947641 0.042390347 0.049702007 0.04587517 0.0005971211
0.051376462 -0.007918563 0.0048902687 0.04963733 0.02484679 -0.018366449 -0.050965097 0.03519392
0.013757656 0.05273067 -0.04554317 -0.055271164 -0.010856271 -0.023907216 0.0022124364 -0.00026492483
-0.041628093 0.03766339 -0.019335514 -0.06424891 0.025115093 0.046711784 0.012407622 0.0320123

bias f4 [2]
00000000: d3c5 4f3d d6ba c2bc
0.05072577 -0.023770731
